model_combined.pth (torch, 416042 bytes, 33 tensors)

conv.0.weight f4 [16, 3, 7]
0	0xbde4b7e0	-0.11167884
1	0xbe259589	-0.16170324
2	0xbd5e94b4	-0.054341033
3	0x3e57c7ce	0.21072313
4	0x3dc93d3f	0.09826135
5	0x3e445df6	0.19176468
6	0xbe1e025d	-0.15430589
7	0x3e0a1050	0.13482785
8	0xbc243b52	-0.010023909
9	0xbe379ad2	-0.17930153
10	0xbe034dd7	-0.12822662
11	0xbc38ecad	-0.011286897
12	0x3dff90e0	0.124788046
13	0x3bcfa3b5	0.006336654
14	0xbe781ed7	-0.24230514
15	0xbdac7533	-0.084207915
16	0xbca360eb	-0.019943675
17	0x3d874cc3	0.06606438
18	0x3e3e2030	0.18566966
19	0xbe109e66	-0.14122924
20	0x3e26ee73	0.16301899
21	0x3e1c7a41	0.15281011
22	0x3d782de2	0.060590632
23	0xbe0af35c	-0.13569397
24	0xbd351a7f	-0.04421472
25	0xbbb04e24	-0.005380409
26	0xbd5c4e3f	-0.05378556
27	0x3e357fd3	0.17724542
28	0x3d2f27df	0.042762633
29	0xbcf9124c	-0.030404232
30	0xbdfea70e	-0.12434207
31	0x3d3289eb	0.04358856
32	0x3d072091	0.032990042
33	0x3e2297fe	0.15878293
34	0x3d180f41	0.037123922
35	0x3e4a1c66	0.19737396
36	0x3cd1dc42	0.025617722
37	0x3d41038b	0.04712252
38	0xbdc39d74	-0.09551516
39	0x3d72cffe	0.059280388
40	0x3e4e4dae	0.2014682
41	0xbe59413a	-0.21216288
42	0x3e27409a	0.16333237
43	0x3d263933	0.040581893
44	0xbe0fa18f	-0.14026473
45	0x3e50d1fe	0.20392606
46	0xbe3a0f9a	-0.18170014
47	0x3e61ddbb	0.2205724
48	0x3e184ad5	0.14872296
49	0x3e574c87	0.21025287
50	0x3db7ee50	0.089810014
51	0xbda7c283	-0.08191397
52	0xbdeb848e	-0.11499892
53	0xbdea8b76	-0.11452381
54	0x3e37ebd7	0.1796106
55	0xbdbe03a9	-0.09278042
56	0xbcd2dfb7	-0.025741441
57	0x3db3048f	0.08741104
58	0xbe7cc4bc	-0.24684423
59	0x3d2d6abd	0.04233812
60	0xbe424ae0	-0.18973875
61	0x3dfa5752	0.12223686
62	0xbd8ee382	-0.069769874
63	0xbe5a65b2	-0.21327856
64	0xbe0b851f	-0.13625
65	0x3db3f348	0.087866366
66	0x3aa918f3	0.0012901112
67	0x3e075f08	0.13219845
68	0xbdd0422b	-0.101688705
69	0xbc8f0517	-0.017458482
70	0x3d910c22	0.07082392
71	0x3d7b5114	0.06135662
72	0xbdb49589	-0.08817584
73	0x3cc57ef5	0.02410839
74	0x3d149731	0.036277
75	0x3db2821e	0.08716224
76	0xbde5adc2	-0.11214782
77	0xbd0da9c8	-0.034585744
78	0xbe4db0b8	-0.20086944
79	0x3d93f325	0.072241105
80	0x3c9d7190	0.01921919
81	0x3dbae99f	0.09126591
82	0x3ce76cf2	0.028250191
83	0xbde4567d	-0.11149309
84	0x3e3edc30	0.18638682
85	0x3d951819	0.07279987
86	0x3e54f517	0.2079662
87	0x3c7bf5be	0.015378414
88	0x3e5d2c32	0.2159889
89	0xbe285d67	-0.1644188
90	0xbd899bad	-0.06719146
91	0x3df95392	0.12174143
92	0x3e119b5a	0.14219418
93	0x3d4ff09d	0.050766576
94	0x3e35c679	0.17751493
95	0x3e13b22c	0.14423436
96	0x3d34762e	0.044058017
97	0xbe435071	-0.19073655
98	0x3d76544b	0.06013898
99	0xbdfd2994	-0.12361446
100	0xbdc71942	-0.097216144
101	0x3e44495a	0.19168606
102	0x3c907514	0.017633952
103	0xbdaa52b4	-0.083165556
104	0xbe33b9d0	-0.1755135
105	0xbe4dacd3	-0.20085458
106	0xbd68a8bb	-0.05680154
107	0x3d8a3c33	0.06749763
108	0xbe369c2a	-0.1783301
109	0xbda98a3b	-0.082783185
110	0xbe5f1bc6	-0.21787938
111	0x3e0bb3c2	0.13642791
112	0xbe1bcf00	-0.15215683
113	0x3d98215b	0.07428237
114	0x3cc47da6	0.023985695
115	0x3d912f5d	0.07089112
116	0x3e0f4bdf	0.13993786
117	0xbc4555f3	-0.012044418
118	0xbe372a46	-0.1788722
119	0xbe094bbe	-0.134078
120	0xbd833857	-0.0640723
121	0xbe2c4da4	-0.16826493
122	0xbde70109	-0.11279494
123	0x3e5ddd6b	0.21666496
124	0xbcb38788	-0.021915212
125	0x3deae391	0.11469186
126	0xbe09c999	-0.1345581
127	0x3e67b4b6	0.2262753
128	0xbd644ced	-0.055737425
129	0xbe155158	-0.14581811
130	0xbd01a41f	-0.03165066
131	0xbdeb2012	-0.11480726
132	0xbc590ee7	-0.013248182
133	0x3dfef959	0.12449903
134	0xbd1f2189	-0.03885034
135	0xbe275579	-0.16341199
136	0x3e10f6f8	0.14156711
137	0x3d6285c8	0.055303365
138	0x3c910e9a	0.017707158
139	0xbd40bdac	-0.047055885
140	0xbd8b3798	-0.06797713
141	0x3e457aa1	0.1928506
142	0x3d28a19b	0.041169744
143	0x3c9ddc0f	0.019269971
144	0x3cdc3c79	0.026884304
145	0x3dc90136	0.09814684
146	0xbe143bba	-0.14475909
147	0x3deb012d	0.11474834
148	0x3e24d65c	0.16097397
149	0xbe41ca2c	-0.18924779
150	0x3d95668b	0.07294949
151	0xbe120c72	-0.1426256
152	0x3d7d8f64	0.061904326
153	0xbe2d3afe	-0.16917035
154	0xbde378bc	-0.11107013
155	0xbdeac5d4	-0.11463514
156	0xba4a0284	-0.00077060633
157	0x3dd91793	0.106001996
158	0xbda2b5e1	-0.07944847
159	0xbe5a5f87	-0.21325503
160	0x3e36cc99	0.17851485
161	0x3d42bad6	0.047541462
162	0x3d00b150	0.0314191
163	0x3d96ca78	0.073628366
164	0x3e05ea6d	0.13077708
165	0xbdab8073	-0.08374109
166	0x3e0fd525	0.14046152
167	0xbe320a97	-0.17386852
168	0xbc62df07	-0.013847119
169	0xbce512c7	-0.027963055
170	0xbe24a021	-0.1607671
171	0xbdc5a80d	-0.09651194
172	0x3dcb9a11	0.09941495
173	0x3dd3ee62	0.10348202
174	0x3e432ef2	0.19060877
175	0x3d73edbd	0.059552897
176	0xbda17974	-0.078844935
177	0xbe45fe73	-0.19335346
178	0x3ddaa698	0.106763065
179	0x3d1cac5a	0.038250305
180	0xbe443e9e	-0.19164512
181	0x3de0f979	0.10985083
182	0xbd004f4b	-0.03132562
183	0xbe2b4c7d	-0.16728397
184	0x3e5400fd	0.20703502
185	0xb8c249f2	-9.264414e-05
186	0x3e2b1d7f	0.1671047
187	0xbd989fee	-0.07452379
188	0xbdfc7977	-0.12327855
189	0xbe2edbf0	-0.17076087
190	0xbe2e2d23	-0.17009406
191	0xbd399165	-0.045304675
192	0x3d8ef006	0.069793746
193	0xbe3d916f	-0.1851251
194	0x3e421e87	0.18956958
195	0xbd1ccd87	-0.038281944
196	0xbe3b5613	-0.18294553
197	0xbc252f57	-0.0100820875
198	0x3e4250c5	0.18976124
199	0xbe41770a	-0.18893066
200	0x3ca01258	0.019539997
201	0x3e327a79	0.17429532
202	0x3da30921	0.079607256
203	0x3e23b9e4	0.1598888
204	0x3e4fb713	0.20284681
205	0xbd3ee967	-0.04660931
206	0xbe44d62b	-0.19222324
207	0x3dc15fc7	0.09442096
208	0xbbd7b894	-0.0065832827
209	0xbd5159b5	-0.051110942
210	0xbd0ae0f6	-0.033905946
211	0x3d5aa3d1	0.053378884
212	0xbd9154c0	-0.07096243
213	0xbdb8638a	-0.090033606
214	0x3d3982a8	0.04529062
215	0x3e27e185	0.16394623
216	0x3cd3fd5a	0.025877643
217	0x3e40a62f	0.18813394
218	0x3ce6ffc6	0.028198134
219	0x3c9c361b	0.019068768
220	0xbd359623	-0.044332635
221	0xbe3d7bbc	-0.18504232
222	0x3e4ce68d	0.20009823
223	0xbc28ebd0	-0.010310128
224	0x3dd8a61c	0.10578558
225	0x3e53e4ef	0.206928
226	0x3ddcf30c	0.10788545
227	0xbd64d8de	-0.055870883
228	0x3cca8257	0.024720354
229	0x3d550831	0.052009765
230	0xbe5ca941	-0.2154894
231	0x3e335300	0.1751213
232	0x3d831bf1	0.06401814
233	0x3d00c702	0.03143979
234	0xbd2a4faf	-0.0415799
235	0xbd814e67	-0.06313782
236	0xbe50b7eb	-0.20382659
237	0x3dca38c7	0.09874111
238	0x3d86a280	0.06573963
239	0x3ce86013	0.028366124
240	0x3d9a2e26	0.07528333
241	0xbc9d1cb8	-0.019178733
242	0x3e778eab	0.24175517
243	0x3e618018	0.2202152
244	0x3d7ac7fb	0.061225872
245	0x3e2deb50	0.16984296
246	0x3dc7846a	0.09742053
247	0xbcab970d	-0.02094605
248	0x3e00b19d	0.12567754
249	0xbc348f4d	-0.011020494
250	0xbe657be9	-0.22410549
251	0x3d714d17	0.05891141
252	0xbce603f7	-0.028078062
253	0xbd644eee	-0.055739336
254	0x3de06c57	0.10958164
255	0x3dd543e8	0.10413343

conv.0.bias f4 [16]
0	0x3e2c3f1b	0.16820948
1	0xbc8085ad	-0.015688742
2	0x3e40db79	0.18833722
3	0x3dfde343	0.12396862
4	0xbe086709	-0.13320555
5	0x3e2ab213	0.16669492
6	0xbdeec1c0	-0.11658049
7	0x3da18479	0.07886595
8	0x3bbcd54d	0.005762732
9	0xbe13fde3	-0.14452319
10	0xbe3585e5	-0.17726858
11	0x3e37630e	0.1790888
12	0xbde14021	-0.1099856
13	0x3bf970d3	0.0076123266
14	0x3e05be8b	0.13060968
15	0xbdd50bb9	-0.104026265

conv.1.weight f4 [16]
0	0x3f7f4d79	0.9972759
1	0x3f806234	1.0029969
2	0x3f751358	0.9573264
3	0x3f7b8e4d	0.9826401
4	0x3f7174eb	0.9431903
5	0x3f7cacb7	0.9870104
6	0x3f80041d	1.0001255
7	0x3f7e09c1	0.99233633
8	0x3f80b63c	1.0055614
9	0x3f7b0b30	0.98063946
10	0x3f8024ea	1.0011265
11	0x3f83702c	1.0268607
12	0x3f810e71	1.0082532
13	0x3f811500	1.0084534
14	0x3f86ad4f	1.052164
15	0x3f826903	1.0188297

conv.1.bias f4 [16]
0	0x3c8cb1b1	0.017174574
1	0x3b8a47ab	0.0042199693
2	0xbd671eab	-0.05642573
3	0x3ca3d2f9	0.01999806
4	0x3c15cbab	0.0091427965
5	0xbc9e148d	-0.019296909
6	0x3d71dab7	0.059046473
7	0xbd70acaf	-0.058758434
8	0x3d83b027	0.06430083
9	0xbcf88c9d	-0.030340487
10	0x3ad717a3	0.0016410243
11	0xbcb065fe	-0.021533009
12	0xbc11065c	-0.008851614
13	0x3c99573e	0.018718358
14	0xbbbd3449	-0.005774055
15	0x3c04d7f4	0.008108128

conv.1.running_mean f4 [16]
0	0x3e2c5887	0.16830646
1	0xbc821013	-0.015876805
2	0x3e40ad2a	0.18816057
3	0x3dfe5f9f	0.12420582
4	0xbe086cec	-0.133228
5	0x3e2a8f36	0.16656193
6	0xbdeeaeeb	-0.11654457
7	0x3da1467a	0.078747705
8	0x3bbda8a2	0.005787925
9	0xbe1414dc	-0.14461082
10	0xbe359f66	-0.17736587
11	0x3e3757dd	0.17904611
12	0xbde1692a	-0.110063866
13	0x3bf87636	0.007582451
14	0x3e05eff8	0.13079822
15	0xbdd5970c	-0.104292005

conv.1.running_var f4 [16]
0	0x3da81747	0.08207565
1	0x3df60994	0.12013546
2	0x3e7acbe6	0.24491844
3	0x3d673808	0.05644992
4	0x3f10b457	0.56525177
5	0x3e88bb58	0.26705432
6	0x3da2366d	0.07920537
7	0x3dc6cf3b	0.09707495
8	0x3d9fda6d	0.07805333
9	0x3e272c27	0.16325437
10	0x3e10fe22	0.14159444
11	0x3ecd4f9f	0.4009981
12	0x3e912bcf	0.28353736
13	0x3e289403	0.16462712
14	0x3e4e4c7f	0.20146368
15	0x3ebe0eaf	0.37120578

conv.4.weight f4 [32, 16, 5]
0	0x3d7bde75	0.06149145
1	0xbd5f2ea8	-0.054487854
2	0xbd5911bb	-0.052995425
3	0xbca5fe64	-0.020262904
4	0xbd99868d	-0.07496367
5	0xbd31c129	-0.043397103
6	0xbd7b3fa9	-0.061340008
7	0xbd160540	-0.0366261
8	0xbdcbad91	-0.099452145
9	0xbdb8b4df	-0.090188734
10	0x3c7c2117	0.015388749
11	0xbcd3c29f	-0.025849639
12	0x3d790a6c	0.060800955
13	0x3d8dfb82	0.06932737
14	0x3db4af36	0.08822481
15	0x3d7c9b1a	0.061671354
16	0x3d43ef23	0.04783548
17	0x3db58a8c	0.08864316
18	0x3d9d3d98	0.07677764
19	0x3d9d9755	0.0769488
20	0xbddfbaa9	-0.109242745
21	0xbda0ba55	-0.0784804
22	0x3d7f43f4	0.062320665
23	0x3d24c42e	0.040226154
24	0x3d05edc1	0.032697443
25	0xbd8aeb55	-0.06783167
26	0xbd9bb486	-0.076027915
27	0xbdeac686	-0.114636466
28	0xbda1e43f	-0.079048626
29	0x3d58f079	0.052963708
30	0x3d3d86be	0.04627108
31	0x3d5b6b78	0.053569287
32	0xbcdc8c39	-0.026922332
33	0xbd634bbd	-0.05549215
34	0x3d49a7c4	0.04923226
35	0xbd7d0f5e	-0.061782233
36	0xbdddc2c5	-0.10828165
37	0x3ddf2412	0.10895552
38	0xbd82cdf7	-0.06386941
39	0x3db7eddd	0.08980916
40	0xbc6346ac	-0.01387183
41	0xbde5b5d5	-0.11216322
42	0xbc3e95fe	-0.011632441
43	0x3d85958f	0.06522667
44	0xbd10f228	-0.03538719
45	0x3b4a20cc	0.0030842302
46	0x3c916392	0.017747674
47	0xbd608aa3	-0.054819714
48	0xbcbd7cb9	-0.023130761
49	0xbcca502e	-0.024696436
50	0xbd92166d	-0.07133184
51	0xbb32aca1	-0.002726354
52	0xbcd81eab	-0.026381811
53	0xbb9f7ee9	-0.004867424
54	0xbdb2a270	-0.08722389
55	0x3c5b55d4	0.013387162
56	0x3d3aa807	0.0455704
57	0x3ca7690b	0.02043583
58	0xbd602459	-0.054722164
59	0xbc576ee9	-0.013149002
60	0xbdb66f81	-0.089079864
61	0xbdb9a5a9	-0.090648
62	0x3dc31996	0.095263645
63	0xbcad78dd	-0.021175796
64	0xbc90b0b3	-0.017662382
65	0xbdd6768f	-0.10471832
66	0x3d0f8961	0.035043124
67	0x3d011182	0.031510837
68	0x3d5d1476	0.05397459
69	0x3d21c5ee	0.0394954
70	0x3db5b143	0.088717006
71	0x3d0eee03	0.034894954
72	0xbdba435c	-0.09094879
73	0x3ccb85f3	0.024844145
74	0x3d727596	0.05919417
75	0xbdbd576a	-0.092451885
76	0xbd8c7581	-0.068583496
77	0xbdfec45f	-0.124397986
78	0x3c613cc3	0.013747397
79	0xbd8e59a5	-0.06950692
80	0xbbb3b7bb	-0.005484549
81	0x3d51e286	0.05124142
82	0xbd0329d7	-0.032022323
83	0x3c9145c9	0.017733471
84	0xbb41ec7a	-0.0029590414
85	0xbdfdb224	-0.12387493
86	0xbd823572	-0.0635785
87	0xbd87bf24	-0.06628254
88	0xbccd512e	-0.025063124
89	0xbd2904f4	-0.04126449
90	0x3dd8ec6d	0.1059197
91	0xbd3b976b	-0.0457987
92	0xbd808d29	-0.06276924
93	0xbdab962c	-0.083782524
94	0x3de2dd73	0.11077394
95	0xbbe10d02	-0.0068680057
96	0x3daf03e9	0.08545668
97	0x3dbad578	0.09122747
98	0xbd91a646	-0.07111792
99	0x3d40b48d	0.047047187
100	0x3cfbf4e6	0.030756425
101	0xbdb394ec	-0.08768639
102	0xbdc9aa24	-0.09846905
103	0x3d82c48f	0.06385147
104	0x3c1d058f	0.009583845
105	0x3dac3075	0.0840768
106	0xbdc0907d	-0.09402559
107	0xbcf6cd18	-0.030127093
108	0x3c96805d	0.018371755
109	0xbd057f43	-0.03259207
110	0xbdb3f930	-0.08787763
111	0x3c4c9f38	0.012489133
112	0xbd614225	-0.05499472
113	0x3cd1483b	0.025547137
114	0x3cf8bd3f	0.030363677
115	0x3c1c257c	0.009530421
116	0xbd98c7e0	-0.07459998
117	0x3dd56787	0.10420137
118	0xbde49892	-0.11161913
119	0x3e003b29	0.12522568
120	0xbd80d7ac	-0.06291136
121	0xbd81e79e	-0.063430056
122	0xbcce61b0	-0.025193065
123	0x3c419903	0.011816266
124	0x3d0f917b	0.03505085
125	0x3d962c82	0.07332708
126	0x3da80a50	0.08205092
127	0xbd67f213	-0.056627344
128	0x3dfeed3b	0.12447592
129	0xbcc44ac1	-0.023961427
130	0xbd9790da	-0.07400675
131	0xbe2acbd6	-0.1667932
132	0x3d895c79	0.06707091
133	0x3df49bea	0.11943801
134	0xbdba5e39	-0.09100003
135	0xbd412084	-0.04715015
136	0xbda83d4e	-0.08214818
137	0xbc9a0c74	-0.018804766
138	0xbc926f82	-0.017875437
139	0xbdc7ee80	-0.09762287
140	0x3c9a0b9d	0.018804366
141	0x3d09991e	0.03359329
142	0x3d6f73c1	0.05846
143	0x3d2f6510	0.04282099
144	0x3c3d4e5b	0.011554326
145	0xbdb55c5f	-0.08855509
146	0x3db2a75e	0.08723329
147	0xbb806c99	-0.003919196
148	0xbdc4eb5f	-0.09615206
149	0x3c417506	0.011807686
150	0xbd9d8e93	-0.076932095
151	0xbd9af5fe	-0.075664505
152	0xbd261f08	-0.040556937
153	0xbdef3ad4	-0.116811424
154	0x3d3c41f2	0.045961328
155	0xbdb20562	-0.08692433
156	0x3c657101	0.014003993
157	0xbdaf3411	-0.08554853
158	0x3d53ad4b	0.051678937
159	0x3dda78b0	0.106675506
160	0x3d806783	0.06269743
161	0x3d16cd85	0.036817092
162	0xbd988a19	-0.07448215
163	0xbca3ef11	-0.020011457
164	0x3d01e9a4	0.031716958
165	0x3c49251b	0.012276913
166	0xbbe6a3ab	-0.0070385537
167	0xbd75e084	-0.060028568
168	0xbe007bca	-0.12547222
169	0x3b3bb400	0.0028641224
170	0x3d43636a	0.04770223
171	0xbda765da	-0.081737235
172	0xbbdbf3e6	-0.0067124246
173	0x3cacb417	0.021081967
174	0xbd93bc34	-0.07213631
175	0x3cc5a47c	0.024126284
176	0x3daf9faa	0.085753754
177	0x3d95731f	0.07297348
178	0xbdb8d152	-0.090243
179	0xbd970fff	-0.07376098
180	0xbd52c28e	-0.051455073
181	0xbce8706d	-0.028373921
182	0xbd01601f	-0.03158581
183	0xbd60eb54	-0.054911926
184	0xbb184e9b	-0.0023240212
185	0x3d6927cb	0.056922715
186	0xbcee17c4	-0.029064067
187	0x3d27bcf6	0.04095169
188	0xbc639671	-0.0138908485
189	0xbd12317a	-0.035691716
190	0x3d896c63	0.06710126
191	0xbbb1a490	-0.0054212287
192	0x3daf626b	0.085636936
193	0x3de066a4	0.10957077
194	0x3cee9e53	0.02912823
195	0x3d6eff40	0.058348894
196	0x3c087ed6	0.008331021
197	0xbc9ebe3b	-0.019377818
198	0xbcb4fd9f	-0.022093592
199	0xbc88df53	-0.016708052
200	0xbd945a18	-0.072437465
201	0xbd42dd52	-0.04757435
202	0x3d6eb5dd	0.058278907
203	0x3c64410b	0.013931523
204	0xbded52a9	-0.11588032
205	0xbe1fb5f6	-0.15596756
206	0x3b53256d	0.0032218352
207	0xbe1c054d	-0.15236397
208	0x3d90d9c7	0.07072788
209	0x3d84729a	0.06467171
210	0xbd035c05	-0.03207018
211	0x3d5e04d8	0.054203838
212	0xbd382964	-0.04496135
213	0xbd3f0773	-0.046637964
214	0xbd6ae616	-0.057348333
215	0xbc19e47b	-0.009392853
216	0xbd97c667	-0.07410889
217	0xbe01ccd9	-0.126758
218	0xbd6b3a9a	-0.057428934
219	0xbd84f01b	-0.06491109
220	0xbdb64e18	-0.08901614
221	0x3d3be0ea	0.04586879
222	0x3d405ec3	0.04696537
223	0xbca595f1	-0.0202131
224	0x3da22981	0.079180725
225	0xbd7f4632	-0.062322803
226	0x3ddbf5ed	0.10740266
227	0x3d497430	0.04918307
228	0x3dc2d453	0.09513154
229	0xbd236c98	-0.039898485
230	0x3d0debfa	0.034648873
231	0xbdd74e27	-0.10512953
232	0xbd2b1beb	-0.04177467
233	0x3c93da1f	0.018048344
234	0xbc8b9003	-0.017036444
235	0xbdf0d4e0	-0.11759353
236	0x3ce5f4c7	0.02807082
237	0x3d1ebbb6	0.038753234
238	0xbde63af3	-0.112417124
239	0xbca8c575	-0.020601967
240	0xbd82f967	-0.06395226
241	0x3ba04a18	0.004891645
242	0x3d49603e	0.04916405
243	0x3d97977e	0.07401942
244	0xbd5d2231	-0.053987686
245	0xbd339de5	-0.04385175
246	0xbdccabdb	-0.09993716
247	0xbdcd95e1	-0.10038353
248	0xbd30c19c	-0.04315339
249	0xbdb536e2	-0.08848359
250	0xbd2947bb	-0.041328173
251	0xbdce7e19	-0.10082645
252	0x3cfa108a	0.030525465
253	0x3c889668	0.016673282
254	0xbdbde227	-0.09271651
255	0xbdffaf4f	-0.12484609

conv.4.bias f4 [32]
0	0xbc48f033	-0.012264299
1	0x3d3a80db	0.045533042
2	0x3d73c8e9	0.059517775
3	0x3df64b97	0.12026136
4	0x3d9ef702	0.07761957
5	0x3d8b750c	0.06809434
6	0x3cde1968	0.027111724
7	0xbd1af6d0	-0.037833035
8	0xbdce0eed	-0.100614406
9	0xbd2890e4	-0.041153803
10	0xbc845088	-0.016151682
11	0xbd879ae2	-0.066213384
12	0xbdb04bc2	-0.086082
13	0xbcb2278a	-0.02174737
14	0x3d9bf24a	0.07614572
15	0xbda93102	-0.082613006
16	0x3d91b23f	0.07114076
17	0x3daa728f	0.083226316
18	0x3dbafe94	0.09130588
19	0xbc83de29	-0.016097145
20	0xbd883dab	-0.06652387
21	0xbc8033e1	-0.015649738
22	0x3c81cf2d	0.01584586
23	0x3d8de648	0.06928688
24	0x3d3943a2	0.045230515
25	0xbd6da85b	-0.058021884
26	0xba6fc5ce	-0.00091466017
27	0x3dff2a9f	0.12459301
28	0x3d0bf287	0.03416684
29	0xbda92b66	-0.08260231
30	0xbdc1fd44	-0.09472135
31	0x3d6f2312	0.058383055

conv.5.weight f4 [32]
0	0x3f817c02	1.0115969
1	0x3f76a502	0.9634553
2	0x3f7ae95e	0.9801234
3	0x3f7d3435	0.98907787
4	0x3f801f65	1.0009581
5	0x3f845595	1.0338618
6	0x3f811898	1.008563
7	0x3f7e23dc	0.9927347
8	0x3f84129a	1.0318177
9	0x3f81e302	1.0147402
10	0x3f812d50	1.0091953
11	0x3f82b4d5	1.0211436
12	0x3f81d3ce	1.0142763
13	0x3f7ffb67	0.99992985
14	0x3f803973	1.0017532
15	0x3f7b3f6b	0.98143643
16	0x3f7aabb2	0.97918236
17	0x3f81293c	1.0090709
18	0x3f7e27d0	0.992795
19	0x3f7c6be4	0.9860213
20	0x3f7a1d74	0.9770119
21	0x3f825b43	1.0184101
22	0x3f78d890	0.9720545
23	0x3f7d2f2d	0.9890011
24	0x3f7b1096	0.98072183
25	0x3f819e4e	1.0126436
26	0x3f7a3f65	0.9775298
27	0x3f80ffe4	1.0078092
28	0x3f7d3d45	0.98921615
29	0x3f7a2824	0.977175
30	0x3f7f1ebc	0.9965627
31	0x3f84950a	1.0357983

conv.5.bias f4 [32]
0	0xbd50189c	-0.05080472
1	0xbd02d4db	-0.031941276
2	0x3c7df85e	0.01550111
3	0xba245ebc	-0.000627022
4	0xbcc2e7e8	-0.023792222
5	0x3cb71dd9	0.0223531
6	0xbb4943fb	-0.0030710686
7	0xbca28296	-0.019837659
8	0xbacb2daf	-0.0015501286
9	0xbcc56976	-0.02409814
10	0x3a383d85	0.000702821
11	0x3cad2583	0.021136051
12	0x3ce96021	0.02848822
13	0x3c86b499	0.016443538
14	0x3b9f2a90	0.004857369
15	0x3b54f2b4	0.0032493295
16	0x3d3e4872	0.046455808
17	0x3b0d4ef0	0.0021561943
18	0xbc475cc7	-0.012168116
19	0x3c459def	0.01206158
20	0x3c1d64b7	0.009606532
21	0xbc2326b3	-0.009957957
22	0xbc0cd067	-0.008594609
23	0x3b60723d	0.0034247779
24	0xbd7c32d4	-0.06157191
25	0x3b43db32	0.002988529
26	0xbb366f12	-0.00278372
27	0x3d013779	0.031547043
28	0x3c8689ea	0.016423184
29	0xbcf4eed9	-0.029899048
30	0x3cb76d22	0.022390906
31	0xbc1aa1cc	-0.009437989

conv.5.running_mean f4 [32]
0	0xbea90296	-0.33009785
1	0xbe7dc2aa	-0.2478129
2	0xbe7fa15e	-0.249639
3	0xbf222155	-0.6333211
4	0x3e0076c4	0.12545305
5	0xbe9c5c8e	-0.30539364
6	0xbd916551	-0.07099403
7	0xbeb2220e	-0.34791607
8	0xbf2c91bd	-0.6740988
9	0xbbfaf8ad	-0.007659039
10	0xbea803fa	-0.32815534
11	0xbefbb932	-0.4916473
12	0xbeb3d00c	-0.35119665
13	0xbe29b94c	-0.16574591
14	0xbd547c80	-0.051876545
15	0xbe5df561	-0.21675636
16	0xbe52f957	-0.20602928
17	0xbe99be8c	-0.30028188
18	0xbda15678	-0.07877821
19	0xbe53744d	-0.20649834
20	0xbe1ad84c	-0.15121573
21	0xbeaf83e6	-0.34280318
22	0xbe23b59f	-0.15987252
23	0x3cb935aa	0.022608597
24	0xbc7c392f	-0.015394493
25	0xbedc79e5	-0.43061748
26	0x3d9fd7e9	0.078048535
27	0xbe24fa24	-0.16111046
28	0xbe0abfae	-0.13549682
29	0xbec88a8f	-0.39168212
30	0xbedbeac7	-0.42952558
31	0xbe2aaecd	-0.16668244

conv.5.running_var f4 [32]
0	0x3e6caaca	0.23112026
1	0x3ecdf390	0.40224886
2	0x3eec6975	0.46174207
3	0x3f47b359	0.7800804
4	0x3e6a43f1	0.2287748
5	0x3e7ac2f0	0.24488425
6	0x3e257094	0.16156226
7	0x3e8ad842	0.27118117
8	0x3eba4657	0.3638179
9	0x3dc15487	0.094399504
10	0x3e465ed9	0.19372119
11	0x3ead70f9	0.33875254
12	0x3e9a97c4	0.30193913
13	0x3df8f91d	0.121568896
14	0x3de8aa65	0.11360625
15	0x3dfbcc9a	0.12294884
16	0x3eb4ab9a	0.35287172
17	0x3e7b04d2	0.24513558
18	0x3e1dcf65	0.15411146
19	0x3e066c7d	0.13127322
20	0x3e734ea0	0.23760462
21	0x3e68c112	0.227299
22	0x3ea7b227	0.32753107
23	0x3e1ce3d9	0.15321292
24	0x3ddad7b3	0.106856726
25	0x3e9a7fdb	0.3017567
26	0x3e5d432c	0.21607655
27	0x3e4081ff	0.1879959
28	0x3e162fc4	0.14666659
29	0x3e56b924	0.20969063
30	0x3e87bab4	0.2650963
31	0x3dfcfc60	0.12352824

conv.8.weight f4 [64, 32, 3]
0	0x3cf1556c	0.029459678
1	0x3d8b7349	0.06809098
2	0x3d595191	0.053056303
3	0x3c967ec2	0.01837099
4	0x3d972d28	0.0738166
5	0xbcbe7ac4	-0.023251899
6	0x3d5546e3	0.052069556
7	0xbca7a0a1	-0.020462336
8	0xbd9d2dc5	-0.076747455
9	0xbd3e09d3	-0.046396088
10	0x3cb8bae0	0.022550046
11	0xbdd85920	-0.10563874
12	0x3d7c44d3	0.061589073
13	0xbc987513	-0.018610513
14	0x39baa41e	0.0003559896
15	0xbceb2b38	-0.028707132
16	0xbdd02faf	-0.10165345
17	0xbcfdcb17	-0.03098063
18	0x3dd7e4ec	0.1054171
19	0x3c237896	0.00997748
20	0x3cbe45c4	0.023226626
21	0xbd933694	-0.07188144
22	0x3c41323d	0.011791763
23	0x3d85de00	0.06536484
24	0xbd88a6f9	-0.066724725
25	0xbda8ff14	-0.08251777
26	0xbd8100f7	-0.06299012
27	0xbc35c01d	-0.011093167
28	0xbd473939	-0.048638556
29	0xbca9ad1e	-0.020712432
30	0xbd06d64f	-0.032919224
31	0x3bcf328d	0.006323165
32	0x3d658587	0.056035545
33	0x3c532afd	0.012888667
34	0xb886fd73	-6.4368265e-05
35	0x3cb349d8	0.021885797
36	0xbde6f3b7	-0.11276954
37	0xbd0c4d7d	-0.034253586
38	0x3b1b8d3c	0.0023735305
39	0x3cc2402e	0.023712244
40	0x3cfc6012	0.030807529
41	0x3d9c36e7	0.07627659
42	0x3ab29ad0	0.001362646
43	0xbdabe03d	-0.083923794
44	0x3d274894	0.0408407
45	0x3de82c62	0.1133659
46	0xbd836174	-0.06415072
47	0x3d4c5015	0.04988106
48	0x3d15e9ff	0.03660011
49	0xbcf6f8ac	-0.030147873
50	0xbda26e2c	-0.0793117
51	0x3c8784c4	0.0165428
52	0xbdb1abfb	-0.08675381
53	0xbd9a7b40	-0.07543039
54	0x3baaeeb3	0.0052164434
55	0xbd2b688b	-0.041847747
56	0xbdad42ec	-0.0846003
57	0xbd8b1078	-0.067902505
58	0xbb3c03d2	-0.00286888
59	0x3d592c9c	0.05302106
60	0xbd1dac2d	-0.038494278
61	0x3dae5d07	0.08513837
62	0x3d8d2949	0.0689264
63	0x3cd1a87e	0.025593039
64	0x3d4c7879	0.04991958
65	0xbd4877fd	-0.048942555
66	0x3d0d13ab	0.034442585
67	0x3d9ed6fa	0.07755847
68	0x3da7e57a	0.08198066
69	0xbcfac33e	-0.030610677
70	0x3d8c0d40	0.06838465
71	0xbda258a9	-0.07927067
72	0x3ddcaef4	0.10775557
73	0x3d74e305	0.059786815
74	0xbc56a65b	-0.013101186
75	0x3e13fd82	0.14452174
76	0x3da192aa	0.07889302
77	0x3b203bc8	0.0024449695
78	0xbd4c0727	-0.04981151
79	0xbd8f28d4	-0.06990209
80	0x3d92fea1	0.07177473
81	0x3b453e26	0.0030096858
82	0x3dbef256	0.09323566
83	0x3d8bd913	0.06828513
84	0xbdae68f1	-0.0851611
85	0xbd945ad5	-0.07243887
86	0x3cda9f90	0.026687413
87	0x3d6f150f	0.058369692
88	0x3d79875a	0.060920097
89	0x3d1eaa7c	0.038736805
90	0x3c6612c0	0.014042556
91	0xbc86c82f	-0.016452877
92	0xbd1f64d1	-0.038914505
93	0x3dbb0735	0.09132234
94	0x3da40efe	0.08010672
95	0x3d82d7b7	0.063888006
96	0xbd1ed0dd	-0.038773406
97	0xbc347dc3	-0.011016312
98	0x3e31b06b	0.17352454
99	0xbd9c5c40	-0.07634783
100	0xbc825fda	-0.015914846
101	0xbd3396bf	-0.043844935
102	0x3c6ff1c9	0.014645048
103	0x3b5ceba0	0.003370978
104	0x3d9250f0	0.07144344
105	0x3da4afe6	0.080413625
106	0x3d4c8203	0.049928676
107	0xbd50b614	-0.050954893
108	0xbbf6a5c5	-0.0075270855
109	0x3d25dd20	0.040494084
110	0x3d9e4de7	0.077297024
111	0xbc9c5106	-0.019081604
112	0xbd33d6f1	-0.043906156
113	0x3dfa0406	0.12207799
114	0x3dcef877	0.10105985
115	0xbd394085	-0.045227546
116	0x3cd2759f	0.025690852
117	0x3c15371a	0.0091073755
118	0x3d5623c6	0.05228021
119	0xbd7c0463	-0.06152762
120	0x3d11ed2d	0.03562658
121	0x3d8d2b87	0.06893068
122	0xbc8c7db0	-0.017149776
123	0x3ce99459	0.02851312
124	0x3ccfd44a	0.025369782
125	0x3c850a1f	0.016240178
126	0xbdebfdfc	-0.11523053
127	0x3d71d734	0.059043124
128	0x3cad13ee	0.021127667
129	0xbdcb8944	-0.09938291
130	0x3c1d8946	0.009615248
131	0x3c833a44	0.016018994
132	0xbcb6eeb5	-0.022330621
133	0x3c02583e	0.007955609
134	0x3dde232b	0.108465515
135	0xbd27be28	-0.04095283
136	0x3c2658e3	0.010153028
137	0x3d748ebe	0.059706442
138	0x3d00561f	0.03133213
139	0x3dbaca7d	0.09120653
140	0x3d82c904	0.06385997
141	0xbcb6786b	-0.022274217
142	0x3cd26d78	0.025686964
143	0x3ddb63cf	0.10712396
144	0x3d095591	0.033528868
145	0xbd207d16	-0.03918179
146	0x3dc42e66	0.09579162
147	0xbd973de4	-0.073848516
148	0x3d6a2e96	0.057173334
149	0xbbd0b1e6	-0.0063688634
150	0x3d902fe1	0.07040382
151	0xbd3d2cce	-0.046185307
152	0x3d8203f7	0.063484125
153	0x3c7b1bd9	0.015326464
154	0x3dae6231	0.08514822
155	0xbdf17fc1	-0.11791945
156	0x3d3b8ab1	0.045786563
157	0xbd97ae53	-0.074062966
158	0xbc82e850	-0.015979916
159	0xbb926a1b	-0.004468215
160	0xbd4a929e	-0.04945623
161	0xbd8439ef	-0.064563625
162	0x3bc469e4	0.0059940685
163	0xbd55f215	-0.05223282
164	0xbde98068	-0.11401445
165	0xbdfa472b	-0.122206055
166	0x3d9c8569	0.076426335
167	0x3d271758	0.040793747
168	0xbdc86edc	-0.0978677
169	0x3d9998ae	0.074998245
170	0xbd367de3	-0.04455365
171	0xbd447136	-0.04795953
172	0xbda20556	-0.07911174
173	0x3dc7d67d	0.09757707
174	0x3d81533a	0.06314702
175	0xbe06999d	-0.13144536
176	0xbda5dacd	-0.080983736
177	0xbd1005aa	-0.03516165
178	0x3db691d3	0.089145325
179	0xbc7051d4	-0.014667947
180	0xbd02dac4	-0.031946912
181	0xbca12986	-0.01967312
182	0xbdb14ba7	-0.08657008
183	0x3d156171	0.03646988
184	0x3be16cea	0.0068794386
185	0x3dbbaad6	0.09163444
186	0x3c14b008	0.009075172
187	0xbccdea04	-0.025136001
188	0xbd5cc0e3	-0.05389489
189	0xbc2e7b10	-0.010649458
190	0xbd465062	-0.048416503
191	0x3ce53dd9	0.027983593
192	0xbce31670	-0.02772066
193	0x3d5f7427	0.05455413
194	0xbd8318ab	-0.064011894
195	0xbc9f4716	-0.019443076
196	0x3dc967da	0.09834261
197	0xbcf15315	-0.029458562
198	0xbc2c3397	-0.010510347
199	0xbdb6d03e	-0.08926438
200	0x3d256bcf	0.040386017
201	0xbdcee02b	-0.101013504
202	0x3bb775db	0.0055987663
203	0xbdb9797b	-0.09056374
204	0x3d0ce30e	0.034396224
205	0xbca0191b	-0.019543221
206	0x3c3925b2	0.011300491
207	0xbde60604	-0.11231616
208	0xbd9f4023	-0.07775905
209	0x3db5d44f	0.08878385
210	0x3d8372f7	0.06418412
211	0xbd56f9e2	-0.0524844
212	0xbde4bb3a	-0.11168523
213	0x3d48352e	0.04887884
214	0xbdce9f43	-0.100889705
215	0x3cd42010	0.025894195
216	0x3d54a044	0.051910654
217	0x3d1daa26	0.038492344
218	0x3d018193	0.031617712
219	0xbcaa91e0	-0.020821512
220	0xbd600af2	-0.05469794
221	0x3d729212	0.059221335
222	0x3d727ba6	0.05919995
223	0x3d818a24	0.06325176
224	0x3d3a4bb1	0.04548234
225	0x3d6f2acb	0.05839042
226	0x3d747f15	0.059691507
227	0x3d6aa423	0.05728544
228	0x3d80bb3c	0.06285712
229	0x3da8d1bf	0.08243131
230	0x3d99cfb7	0.075103216
231	0xbdd25ca4	-0.10271576
232	0xbc82d595	-0.015970984
233	0x3b9263e7	0.0044674757
234	0xbc9815a9	-0.018565016
235	0x3c150526	0.009095466
236	0x3c1c0bff	0.0095243445
237	0xbd8748ae	-0.066056594
238	0xbd4758c9	-0.048668656
239	0x3caf90a7	0.02143128
240	0xbd6c534d	-0.05769663
241	0xbda3e4de	-0.08002637
242	0xbd5ea65f	-0.054357883
243	0xbdcb8301	-0.099370964
244	0xbd9d3061	-0.07675243
245	0xbd7fbe96	-0.062437616
246	0xbda3a2e8	-0.07990056
247	0xbd66eda5	-0.05637898
248	0xbdd2e75d	-0.10298035
249	0xbd9912e7	-0.074743085
250	0xbd82a779	-0.06379599
251	0xbd5e1ea4	-0.05422844
252	0x3cfcc49f	0.030855475
253	0xbd093195	-0.03349455
254	0x3d6bd8df	0.05757987
255	0xbd34cefa	-0.0441427

conv.8.bias f4 [64]
0	0xbdc6a185	-0.09698776
1	0xbd0f0f8f	-0.034926947
2	0x3cfd6ed4	0.030936636
3	0xbcbcfd52	-0.023070011
4	0xbdb30ad9	-0.087423034
5	0xbcf2482b	-0.029575428
6	0x3ad034b6	0.001588485
7	0xbc7e895e	-0.015535681
8	0xbda8ac04	-0.082359344
9	0x3db2f60d	0.08738337
10	0xbdadb98f	-0.08482658
11	0x3d7463c4	0.059665456
12	0xbcb390d4	-0.021919645
13	0x3d669dbd	0.056302775
14	0xbd10572f	-0.035239395
15	0xbcc42416	-0.023942988
16	0xbc93a207	-0.018021597
17	0x3dadc875	0.084855
18	0xbd83ec72	-0.06441583
19	0xbc03d1bf	-0.008045613
20	0x3d274829	0.0408403
21	0x3da6eff3	0.081512354
22	0x3b798342	0.003807262
23	0xbc456c8d	-0.012049806
24	0x3dbd8660	0.092541456
25	0xbca18399	-0.019716071
26	0xbd7215af	-0.05910271
27	0xbd92f5ce	-0.0717579
28	0x3ded6252	0.11591019
29	0xbd291575	-0.04128023
30	0x3d996798	0.07490462
31	0xbdc6ea9e	-0.097127184
32	0xbda6bb91	-0.08141244
33	0xbd060df5	-0.032728154
34	0xbcf31c52	-0.02967659
35	0xbd1cea91	-0.038309637
36	0xbd9ecdf5	-0.07754127
37	0xbdc7c7ce	-0.097549066
38	0xbd61d63a	-0.055135943
39	0x3c1f0a89	0.009707102
40	0x3d0b29a6	0.033975266
41	0x3a8d5bb3	0.0010784775
42	0x3d76c838	0.060249537
43	0xbdb13e1d	-0.08654425
44	0xbdcb5190	-0.09927666
45	0xbdbba5aa	-0.09162457
46	0x3c93b0af	0.018028585
47	0x3c715f49	0.01473219
48	0x3c0730f1	0.008251415
49	0xbd90ff9b	-0.07080003
50	0xbd44516d	-0.047929216
51	0x3d2fb29f	0.042894956
52	0x3c7a1d29	0.015265741
53	0x3dda33eb	0.10654434
54	0xbdcbcee1	-0.099515684
55	0x3d7bbbc6	0.06145837
56	0x3c90d730	0.017680734
57	0xbc567a51	-0.013090686
58	0x3cde5058	0.02713792
59	0x3dc3a3af	0.095527045
60	0xbdc9d594	-0.0985519
61	0x3dad3e4b	0.08459147
62	0xbd5f8438	-0.054569453
63	0xbda97fb1	-0.08276308

conv.9.weight f4 [64]
0	0x3f857c25	1.0428511
1	0x3f8a9a0a	1.0828259
2	0x3f7c2f58	0.9850974
3	0x3f838b32	1.0276854
4	0x3f84ecc4	1.0384755
5	0x3f864fd1	1.0493108
6	0x3f849e6c	1.0360847
7	0x3f83fb05	1.031098
8	0x3f8259e8	1.0183687
9	0x3f8282a0	1.0196114
10	0x3f864d81	1.0492402
11	0x3f86734c	1.0503936
12	0x3f83f273	1.0308365
13	0x3f871510	1.0553303
14	0x3f810e6e	1.0082529
15	0x3f8a1df7	1.0790395
16	0x3f835e24	1.0263104
17	0x3f889a6f	1.0672129
18	0x3f854989	1.0413066
19	0x3f824acd	1.0179077
20	0x3f84dfaa	1.0380757
21	0x3f866304	1.0498967
22	0x3f8220f9	1.0166312
23	0x3f853ca2	1.0409129
24	0x3f88da0a	1.069154
25	0x3f8328ba	1.0246804
26	0x3f9281cf	1.1445864
27	0x3f846d2c	1.0345817
28	0x3f820f1f	1.0160865
29	0x3f84bbef	1.0369853
30	0x3f837358	1.0269575
31	0x3f816006	1.0107429
32	0x3f88d13b	1.0688852
33	0x3f82b05c	1.0210071
34	0x3f8203c5	1.01574
35	0x3f7e063a	0.9922825
36	0x3f87e221	1.0615884
37	0x3f8645fb	1.0490106
38	0x3f8744bf	1.0567855
39	0x3f8332a3	1.0249828
40	0x3f8635fd	1.0485226
41	0x3f8528b4	1.0403047
42	0x3f81f085	1.0151526
43	0x3f839043	1.02784
44	0x3f819288	1.0122843
45	0x3f847754	1.0348916
46	0x3f832497	1.0245541
47	0x3f825b61	1.0184137
48	0x3f7e291e	0.9928149
49	0x3f856736	1.0422122
50	0x3f7ef0d7	0.9958624
51	0x3f83dace	1.0301149
52	0x3f8606e0	1.0470848
53	0x3f84f784	1.0388036
54	0x3f866b9e	1.0501592
55	0x3f839a07	1.028138
56	0x3f827dc9	1.0194637
57	0x3f854447	1.0411462
58	0x3f865481	1.0494539
59	0x3f845867	1.0339478
60	0x3f81be6d	1.0136238
61	0x3f839f94	1.0283074
62	0x3f831aab	1.0242513
63	0x3f85e9a2	1.0461924

conv.9.bias f4 [64]
0	0x3c56bf65	0.013107155
1	0x3d02c3fd	0.03192519
2	0xbc061216	-0.008183023
3	0x3c2828be	0.01026362
4	0x3d0917d2	0.033469982
5	0x3b98d1d4	0.0046636853
6	0x3bfee6ae	0.007778964
7	0x3c7a7f89	0.015289196
8	0xbbbb953e	-0.005724578
9	0x3bd8a03d	0.0066108988
10	0x3d31efb0	0.043441474
11	0x39888483	0.0002603867
12	0xba513504	-0.0007980617
13	0x3c48d03a	0.012256676
14	0xbb013650	-0.001971621
15	0x3c9d6d03	0.01921702
16	0x3b9ea13b	0.0048409975
17	0x3c7d5e12	0.015464323
18	0xbc7a9604	-0.015294556
19	0x3c63dcc3	0.013907614
20	0x3cddd400	0.027078629
21	0x3c38e8a6	0.011285936
22	0xbd1a9911	-0.03774363
23	0x3bf25487	0.0073953304
24	0x3bf22f9d	0.00739093
25	0xbbfce2ad	-0.0077174515
26	0x3d1a8233	0.037721824
27	0x3c83e218	0.01609902
28	0x3b97b31f	0.004629507
29	0x39a68e6d	0.00031768103
30	0x3b848586	0.0040442375
31	0x3b896c49	0.004193817
32	0x3d0d611d	0.034516443
33	0x3c977150	0.018486649
34	0x3933e9ae	0.00017157823
35	0xbc1ce2f8	-0.009575598
36	0xbd2901aa	-0.041261353
37	0x3c838f7a	0.016059626
38	0x3b616d17	0.0034397298
39	0x3be73795	0.0070561864
40	0x3c0a834e	0.008454157
41	0x3be1dbed	0.0068926723
42	0xbce5a1d0	-0.02803126
43	0x3cd35669	0.02579804
44	0x3c674797	0.014116189
45	0x3ca43958	0.020046875
46	0xba5bd2a8	-0.0008385577
47	0x3b151873	0.0022750169
48	0xbc7b770d	-0.015348208
49	0x3c789455	0.015172084
50	0xbb803104	-0.003912093
51	0x3b9c8ca9	0.00477751
52	0x3d0b3606	0.033987068
53	0x3c7b8145	0.0153506445
54	0x3bb320d4	0.00546656
55	0x3c9a5348	0.01883854
56	0x3b6e558b	0.0036366906
57	0xbc6fe5a0	-0.014642149
58	0x3c702d1d	0.014659193
59	0x3cf31e3c	0.029677503
60	0x3b632869	0.0034661538
61	0xbc98e55c	-0.018664055
62	0xbbcc5c54	-0.0062365923
63	0x3ccc3be0	0.024930894

conv.9.running_mean f4 [64]
0	0x3dd274cc	0.102761835
1	0x3e041ff7	0.12902819
2	0xbe820f5d	-0.25402346
3	0xbcde331e	-0.027123984
4	0xbf00f920	-0.50380135
5	0x3e97e4db	0.2966679
6	0xbf1f6b07	-0.62272686
7	0xbe3ba1a6	-0.18323383
8	0x3ed28327	0.41115686
9	0xbea2a63d	-0.31767455
10	0xbda701e7	-0.0815466
11	0x3d984ac0	0.074361324
12	0x3f04b921	0.51844984
13	0x3efd43e2	0.49465853
14	0xbea5e61a	-0.32402116
15	0xbe43461f	-0.19069718
16	0xbef35e9d	-0.47533122
17	0xbcc5a36d	-0.024125779
18	0x3f2a0f1f	0.6642932
19	0xbf0d941e	-0.55304134
20	0xbd7938c9	-0.06084517
21	0xbe893ea3	-0.268056
22	0x3e7a268d	0.24428768
23	0xbf1ee123	-0.6206228
24	0x3f325bc1	0.69671255
25	0x3e89dadb	0.26924786
26	0x3e5a0d44	0.21294123
27	0x3da51ad3	0.08061757
28	0x3ede79e6	0.43452376
29	0xbe9ce293	-0.30641612
30	0x3e7e0237	0.24805532
31	0xbf584c2d	-0.84491235
32	0x3dec627a	0.115422204
33	0x3ec845bb	0.391157
34	0x3e196f81	0.14983942
35	0xbe76ad14	-0.24089462
36	0x3e6f7fd0	0.233886
37	0xbe446007	-0.19177257
38	0xbe2d82db	-0.16944449
39	0x3dda7b44	0.10668042
40	0x3e5d893a	0.21634379
41	0xbf1c5272	-0.610633
42	0x3ed6603f	0.41870305
43	0xbd069ffc	-0.032867417
44	0xbe3e1958	-0.18564355
45	0xbec4f117	-0.38465187
46	0xbf1c7a47	-0.6112408
47	0xbec2b4db	-0.38028607
48	0xbe48e63f	-0.19619082
49	0xbec16d86	-0.37778872
50	0xbf222ad9	-0.6334663
51	0x3de43734	0.11143342
52	0x3ec292b9	0.38002566
53	0x3d0e3431	0.034717742
54	0xbdb57df1	-0.08861912
55	0x3df233a9	0.1182626
56	0xbed4ae88	-0.41539407
57	0x3eb65b07	0.35616323
58	0xbf0fa692	-0.5611354
59	0xbdec5167	-0.11538964
60	0xbf1227c1	-0.5709191
61	0x3f704f16	0.93870676
62	0xbd154fd8	-0.036453098
63	0x3e3c9aac	0.18418378

conv.9.running_var f4 [64]
0	0x3dd55b22	0.10417773
1	0x3d1943b6	0.03741809
2	0x3d662809	0.056190524
3	0x3d7169d7	0.058938827
4	0x3e09a1d6	0.13440642
5	0x3d615733	0.0550148
6	0x3d8e7d58	0.06957501
7	0x3db8a47e	0.090157494
8	0x3d9b1556	0.07572429
9	0x3db0867c	0.08619401
10	0x3d89a870	0.0672158
11	0x3dfe2fda	0.12411471
12	0x3da963e0	0.08271003
13	0x3d860f3b	0.06545874
14	0x3dffe287	0.124943785
15	0x3d11758d	0.035512496
16	0x3d768bc8	0.0601919
17	0x3d514da1	0.051099423
18	0x3db14ba1	0.08657003
19	0x3e1dd1c2	0.15412048
20	0x3d8d5dff	0.06902694
21	0x3db1b010	0.086761594
22	0x3e12e446	0.14344892
23	0x3da607b4	0.08106938
24	0x3de42e35	0.11141626
25	0x3d6a770a	0.05724243
26	0x3cf77668	0.030207828
27	0x3dc7637a	0.097357705
28	0x3df4882b	0.119400345
29	0x3d422f56	0.047408424
30	0x3d3ea8ab	0.046547573
31	0x3e071712	0.13192394
32	0x3d822eff	0.0635662
33	0x3da5dc11	0.08098615
34	0x3e545c11	0.20738246
35	0x3db915e4	0.090373784
36	0x3d6b8baf	0.05750626
37	0x3d4d17a5	0.050071377
38	0x3d9765ad	0.0739244
39	0x3da50986	0.08058457
40	0x3dcd1364	0.10013464
41	0x3de14058	0.10998601
42	0x3d6b9398	0.057513803
43	0x3e0426cb	0.12905423
44	0x3df40464	0.119149
45	0x3e24c3be	0.16090295
46	0x3df09e19	0.11748905
47	0x3e22d59f	0.15901802
48	0x3eb1bf8b	0.34716448
49	0x3db7d95a	0.089770034
50	0x3f11438a	0.5674368
51	0x3d827639	0.063702054
52	0x3d8fca06	0.07020955
53	0x3d237175	0.039903123
54	0x3d3e918c	0.046525523
55	0x3e87bfd7	0.2651355
56	0x3def47f3	0.11683645
57	0x3dbdbd2b	0.092645966
58	0x3d85cdb5	0.06533376
59	0x3d878ab8	0.066182554
60	0x3e22a08f	0.1588156
61	0x3e23e3ff	0.16004942
62	0x3defffed	0.11718736
63	0x3d8c825e	0.06860803

lstm.weight_ih_l0 f4 [256, 64]
0	0xbd920d20	-0.0713141
1	0xbde2f560	-0.11081958
2	0x3bf04cb7	0.007333364
3	0x3db49bb5	0.08818761
4	0xbd3d7bee	-0.046260767
5	0x3d01a9c7	0.031656053
6	0xbc967154	-0.018364586
7	0xbc0434a3	-0.00806919
8	0x3d8ec2d7	0.069707565
9	0x3cbdafea	0.023155171
10	0x3dc1ac8c	0.09456739
11	0x3ddea2bb	0.10870882
12	0xbd3d9b8d	-0.046290923
13	0x3db3d2b9	0.087804265
14	0x3d0a3962	0.03374613
15	0xbc32c737	-0.010911754
16	0x3df995a4	0.12186745
17	0xbd1d2aff	-0.038371082
18	0xbb2902db	-0.0025789056
19	0x3daebde8	0.085323155
20	0x3d4ebfdb	0.050475936
21	0xbbd9a76d	-0.006642273
22	0xbdf32125	-0.11871556
23	0xbd15d8d3	-0.036583733
24	0xbdb90edc	-0.09036037
25	0x3d895297	0.06705206
26	0x3d665aaa	0.056238808
27	0x3db8e7d6	0.09028594
28	0x3c5661a6	0.013084805
29	0xbd967c17	-0.07347887
30	0x3d32d321	0.04365838
31	0xbdb3a1e4	-0.087711126
32	0xbbc6764d	-0.006056583
33	0xbd9527d8	-0.0728299
34	0x3dc36067	0.09539872
35	0x3cff5919	0.031170415
36	0x3d932d5c	0.07186386
37	0xbda67884	-0.08128455
38	0x3d60e257	0.054903354
39	0x3dffeacc	0.12495956
40	0xbbe484e3	-0.006973849
41	0x3cb81df9	0.02247523
42	0xba2f192a	-0.000667947
43	0x3d6d2bf3	0.05790324
44	0xbda01fa6	-0.078185365
45	0x3cc73774	0.024318434
46	0x3db807ee	0.089858875
47	0xbc73c74f	-0.014879062
48	0xba451e0f	-0.00075194327
49	0x3d87accc	0.06624755
50	0xbdcda6d1	-0.10041583
51	0xbdc59d40	-0.09649134
52	0x3d675d69	0.056485567
53	0x3daa0d45	0.08303312
54	0x3e135402	0.14387515
55	0xbd6d1682	-0.057882793
56	0xbcaf798e	-0.021420266
57	0x3c2960a8	0.010337986
58	0x3e038de0	0.1284709
59	0xbdeda4af	-0.116036765
60	0xbc94e341	-0.01817477
61	0xbe1398ca	-0.14413753
62	0xbd51a0ec	-0.051178858
63	0xbcce422d	-0.02517804
64	0x3d376e26	0.04478278
65	0x3d0aad56	0.033856712
66	0xbd27bfe2	-0.040954478
67	0xbdbea78a	-0.09309299
68	0x3d8256ed	0.06364236
69	0x3daad2c5	0.08340982
70	0x3cdb6c3a	0.026785005
71	0xbdaa6422	-0.0831988
72	0xbc7f4198	-0.015579604
73	0x3d5d1d20	0.053982854
74	0xbd6c496f	-0.05768722
75	0xbc7e5bbb	-0.0155248
76	0x3d27a288	0.040926486
77	0xbc6fb606	-0.0146308
78	0xbd9afe26	-0.07568006
79	0xbde33fa3	-0.11096122
80	0x3caf22f8	0.02137898
81	0x3e2f527d	0.1712131
82	0x3c96df76	0.018417101
83	0xbdcacbc3	-0.09902146
84	0x3dece50a	0.11567123
85	0x3d4a1c64	0.04934348
86	0x3d383aff	0.044978138
87	0x3deac5be	0.114634976
88	0x3c0ab155	0.008465131
89	0x3c4661e6	0.012108302
90	0x3cfe4055	0.031036535
91	0xbcb1665b	-0.021655252
92	0xbde85654	-0.11344591
93	0x3d4584bb	0.048222285
94	0x3cb9f205	0.022698412
95	0xbd0e6c76	-0.034771405
96	0xbe048257	-0.12940346
97	0xbdce0e93	-0.100613736
98	0xbe0ccd97	-0.13750301
99	0xbd0dc528	-0.03461185
100	0xbceef784	-0.029170759
101	0x3dffa5fd	0.124828316
102	0x3d2e3a51	0.042536084
103	0xbdd1d438	-0.10245556
104	0xbd9c6ed3	-0.076383255
105	0x3d781c33	0.060573768
106	0xbc1e006f	-0.009643658
107	0xbb26fbad	-0.00254796
108	0xbdca52e4	-0.098790914
109	0x3cfdd1c5	0.030983815
110	0x3d6d4c69	0.0579342
111	0xbbc38dbe	-0.0059678247
112	0x3da98bdb	0.082786284
113	0xbde14f2b	-0.11001428
114	0x3d3de7c6	0.046363614
115	0xbd1a5409	-0.0376778
116	0xbd4e1c47	-0.050319936
117	0x3d559c4e	0.052151017
118	0x3bdccb2c	0.006738087
119	0xbd8d1a16	-0.06889741
120	0xbb6127c6	-0.0034355982
121	0xbd8d9a25	-0.06914166
122	0xbb126dba	-0.0022343234
123	0x3e100060	0.14062643
124	0x3dc7503a	0.09732099
125	0xbdbd3790	-0.09239113
126	0xbdef6a91	-0.11690248
127	0x3cd6ec0b	0.026235601
128	0x3e1934a1	0.14961483
129	0xbd9832d2	-0.07431568
130	0x3e003134	0.1251877
131	0xbd867cce	-0.06566773
132	0x3be45d75	0.0069691488
133	0xbd1678be	-0.036736242
134	0x3c9ed5c5	0.019389043
135	0xbd98329a	-0.074315265
136	0x3dae50e3	0.08511522
137	0x3de771cb	0.11301001
138	0xbd8cd517	-0.06876581
139	0x3db201e8	0.0869177
140	0x3dbfc612	0.09363951
141	0x3c1db9a4	0.00962678
142	0x3cffce08	0.031226173
143	0xbd860175	-0.06543247
144	0x3e00b651	0.12569548
145	0x3db46aed	0.08809457
146	0x3daf6fe9	0.08566267
147	0xbcd68bb3	-0.02618966
148	0xbdff393a	-0.12462087
149	0xbd5b502a	-0.053543247
150	0x3c26c997	0.010179899
151	0x3d8ba4a2	0.068185106
152	0x3d492a23	0.04911245
153	0x3c9c2e0c	0.019064926
154	0x3d595548	0.053059846
155	0xbbacad50	-0.005269684
156	0x3dfc2da6	0.12313394
157	0xbbb5243a	-0.005528
158	0xbd0c0995	-0.034188826
159	0x3c71b4b0	0.014752552
160	0xbdec1476	-0.1152734
161	0xbc8951a9	-0.016762571
162	0xbd663b08	-0.05620864
163	0x3e2268a1	0.15860225
164	0xbd3f9a67	-0.04677811
165	0xbdbdc04e	-0.09265195
166	0x3db11508	0.086465895
167	0x3dffa111	0.12481893
168	0x3ddebb73	0.10875597
169	0x3d0b9ccf	0.03408509
170	0x3bc3d4ad	0.0059762807
171	0x3db2b333	0.08725586
172	0x3d22e994	0.03977354
173	0x3dbcb475	0.09214107
174	0x3c382fb5	0.011241843
175	0x3cd8c05a	0.026458908
176	0xbd650eef	-0.055922445
177	0xbdb9b469	-0.09067614
178	0x3c801fc0	0.01564014
179	0x3c6acda6	0.014331257
180	0x3db6840a	0.08911903
181	0xbd9b9e6b	-0.07598575
182	0x3ddff243	0.1093488
183	0x3daf4f1e	0.08560012
184	0x3d1c87f4	0.038215593
185	0x3c2539ad	0.010084552
186	0xbda9c44b	-0.08289393
187	0xbd82978f	-0.06376564
188	0xbd325036	-0.043533526
189	0x3c61ff6c	0.0137938075
190	0x3ddce181	0.10785199
191	0x3d0f1907	0.034935977
192	0x3dae09a9	0.08497936
193	0x3e0eb9e0	0.13938093
194	0x3d9d2622	0.07673289
195	0xbdddb42b	-0.1082538
196	0x3c6c1575	0.014409413
197	0xbd23f60a	-0.040029563
198	0xbdeebd7a	-0.116572335
199	0x3c004f78	0.007831447
200	0x3dd37636	0.10325281
201	0x3d131aae	0.035914116
202	0xbdb30608	-0.08741385
203	0x3dc2b1dd	0.09506581
204	0x3e062948	0.13101685
205	0x3dafc152	0.08581795
206	0x3dc7c546	0.09754424
207	0xbd8cb3c7	-0.06870227
208	0xbdedb3cd	-0.1160656
209	0x3c917e6b	0.017760476
210	0x3d3a3c38	0.045467585
211	0xbc5830d2	-0.013195233
212	0xbdadb6bc	-0.084821194
213	0x3dbae63e	0.091259465
214	0x3d70ba47	0.058771398
215	0x3d3ee722	0.046607144
216	0xbd28398b	-0.041070502
217	0x3d96c805	0.073623694
218	0x3d822935	0.06355516
219	0xbcaaf489	-0.020868557
220	0x3dc9e71c	0.09858534
221	0x3d086298	0.03329715
222	0x3dc1d6d0	0.094648
223	0x3ca1421e	0.019684847
224	0x3d42c065	0.047546763
225	0xbdab6f12	-0.08370794
226	0x3da97cba	0.08275743
227	0xbb661dba	-0.0035112933
228	0xba5fc6f1	-0.00085364195
229	0xbdeb6cfa	-0.11495395
230	0xbddeadff	-0.10873031
231	0x3dc72f06	0.09725766
232	0xbd8c3748	-0.068464816
233	0xbd2f751e	-0.0428363
234	0xbd1f77d9	-0.038932655
235	0xbd210731	-0.0393135
236	0x3cf5dbcc	0.030012034
237	0x3ddf083a	0.10890241
238	0x3cd9b70a	0.026576538
239	0x3d85c422	0.0653155
240	0x3df03f1d	0.11730788
241	0xbdf1e7a9	-0.11811764
242	0xbdd34485	-0.103158034
243	0x3dbed786	0.093184516
244	0x3da93a4f	0.082630746
245	0x3e0ad133	0.13556366
246	0xbd89f36d	-0.06735883
247	0xbdab1b69	-0.083548374
248	0xbdc4e20b	-0.09613427
249	0xbdfc96b8	-0.12333435
250	0x3dd0904c	0.101837724
251	0x3d8af8c9	0.06785733
252	0x3d80257e	0.06257151
253	0xbe2c91de	-0.16852519
254	0xbd9b7cd8	-0.075921714
255	0x3de72317	0.1128599

lstm.weight_hh_l0 f4 [256, 64]
0	0xbe166051	-0.1468518
1	0xbdcd66ef	-0.10029399
2	0x3d84cef4	0.06484786
3	0x3cc695df	0.024241386
4	0x3b8b5881	0.004252494
5	0xbdc46735	-0.09589998
6	0x3cff4d4f	0.031164793
7	0xbb3e74cc	-0.0029061316
8	0xbd6f558a	-0.058431186
9	0x3d9177fa	0.07102962
10	0xbddb8fe3	-0.107208036
11	0x3d862e1a	0.06551762
12	0x3e00173e	0.12508866
13	0x3df8a4e8	0.12140828
14	0xbdcd553f	-0.10026025
15	0xbdba28eb	-0.09089836
16	0xbe0ef9eb	-0.13962524
17	0x3e00d9a7	0.12583028
18	0x3caf3790	0.021388799
19	0xbdb5c05d	-0.08874581
20	0xbbe3fc1c	-0.006957544
21	0xbd68fa8d	-0.05687957
22	0x3dbbeec3	0.091763996
23	0x3e041bdd	0.12901254
24	0x3df09e95	0.11748997
25	0xbd61600f	-0.05502325
26	0xbd05f00e	-0.032699637
27	0x3da1a806	0.07893376
28	0x3e498d17	0.19682728
29	0x3dd88163	0.105715536
30	0xbdce3258	-0.10068196
31	0x3db5bdf9	0.08874125
32	0x3d91a4c9	0.071115084
33	0x3dafdf08	0.08587462
34	0x3d06dfe5	0.032928366
35	0x3d6b05c7	0.057378557
36	0xbd2a5a4d	-0.041590024
37	0xbdaf96cb	-0.08573683
38	0x3deee374	0.11664477
39	0xbd44639a	-0.04794655
40	0xbd873788	-0.066023886
41	0x3c90bd01	0.01766825
42	0xbdad1676	-0.0845155
43	0x3b955f70	0.004558496
44	0x3db835c7	0.08994632
45	0x3d1d22e8	0.038363367
46	0xbc59d044	-0.013294283
47	0xbdac4489	-0.084115095
48	0xbe0da6bb	-0.13833134
49	0xbcdd4e5c	-0.027014904
50	0x3cde8b9a	0.027166177
51	0xbcbb09ae	-0.022831764
52	0xbdaa6a70	-0.083210826
53	0x3d61a848	0.055092126
54	0xbdd930b5	-0.10604993
55	0x3d0b8ce6	0.034069918
56	0xbe348345	-0.176282
57	0xbd3fbae9	-0.04680911
58	0xbd413f0c	-0.047179267
59	0x3de9f5e0	0.1142385
60	0xbdc2c4e4	-0.0951021
61	0xbd442f8d	-0.04789691
62	0xbd6a6225	-0.057222504
63	0x3d41b1fe	0.047288887
64	0xbd702a0e	-0.058633856
65	0xbe04ed1f	-0.1298108
66	0xbdf1a683	-0.11799338
67	0x3c4ca546	0.012490576
68	0x3dadeb59	0.08492155
69	0xbd8bcd02	-0.068262115
70	0xbe0e4ca3	-0.13896422
71	0xbdb226c8	-0.08698803
72	0x3d439080	0.047745228
73	0xbda6ed43	-0.08150723
74	0xbdb3a1fd	-0.08771131
75	0xbdffc234	-0.12488213
76	0x3d5877da	0.052848674
77	0x3d8ea653	0.069653176
78	0xbbf022c0	-0.0073283613
79	0xbd82b28b	-0.063817106
80	0xbd5aeb19	-0.053446863
81	0x3b8a9c14	0.0042300317
82	0xbacb047b	-0.0015489006
83	0xbd48a9dc	-0.048990116
84	0x3ce68f4d	0.028144503
85	0xbd959df1	-0.073055156
86	0xbc85248a	-0.016252775
87	0xbc0922b1	-0.0083700875
88	0x3e13b297	0.14423595
89	0x3d96c821	0.0736239
90	0xbbeae4d7	-0.007168393
91	0x3d44b324	0.048022404
92	0xbcfe12a1	-0.031014742
93	0x3d870c60	0.06594157
94	0x3c76ebe6	0.015070891
95	0x3bcecd12	0.0063110674
96	0x3cb0999d	0.021557624
97	0x3d13a939	0.036050055
98	0x3ca9fe8d	0.020751262
99	0xbc82787a	-0.015926588
100	0xbcea6a42	-0.02861512
101	0x3dcef223	0.10104778
102	0x3db680be	0.089112744
103	0x3d455370	0.048175275
104	0xbd5f2a6b	-0.054483812
105	0x3cbd5e63	0.023116296
106	0xbd7f7132	-0.06236381
107	0xbd3b4c92	-0.04572732
108	0x3dbbceb2	0.091702834
109	0xbcceae35	-0.025229553
110	0x3c413ae5	0.011793827
111	0xbd8290b4	-0.06375256
112	0xbdc548d7	-0.09633034
113	0xbe02de76	-0.12780175
114	0x3d43a849	0.04776791
115	0xbdc15956	-0.094408676
116	0xbdc7ca62	-0.09755398
117	0xbdbc345f	-0.091896765
118	0x3bf90427	0.007599372
119	0x3d22da31	0.039758865
120	0x3da4e652	0.080517426
121	0x3cf529d5	0.029927174
122	0x3db051b6	0.08609335
123	0x3db7fcc6	0.089837596
124	0xbd97485c	-0.07386848
125	0x3d931f7c	0.071837395
126	0x3d6580fa	0.056031205
127	0x3d4f00e7	0.05053797
128	0xbcb0216b	-0.02150031
129	0xbc2e8723	-0.010652336
130	0x3ca9d649	0.020732062
131	0xbce13791	-0.027492316
132	0x3d27d755	0.04097684
133	0xbd95fe1b	-0.073238574
134	0x3d880ca1	0.06643034
135	0x3da0e2eb	0.07855781
136	0xbb96e541	-0.004604966
137	0x3d991ed0	0.0747658
138	0xbc2794e5	-0.01022837
139	0xbcf5dcd1	-0.03001252
140	0xbd70cccc	-0.05878906
141	0x3d5d16d2	0.05397684
142	0x3cf90257	0.030396624
143	0xbe081a9f	-0.13291405
144	0x3ca82ac9	0.020528214
145	0xbd932964	-0.07185629
146	0x3c73e155	0.014885266
147	0x3dafe8aa	0.08589299
148	0x3e1da359	0.15394343
149	0x3d51e57b	0.05124424
150	0x3ba13e86	0.0049207835
151	0x3d1a8504	0.03772451
152	0x3c9c8dcf	0.019110588
153	0x3dd6fa1e	0.10496925
154	0xbd0354b9	-0.03206322
155	0xbd84c2e6	-0.064824864
156	0xbd4dbadd	-0.050227035
157	0xbdd459ba	-0.103686765
158	0x3d83ab06	0.064291045
159	0xbdc6e46d	-0.097115375
160	0x3cced02e	0.025245752
161	0xbc6386a5	-0.013887082
162	0xbbc0aa01	-0.005879641
163	0xbcb8b2f1	-0.022546263
164	0xbdab3c31	-0.0836109
165	0x3db8f3a5	0.090308465
166	0xbdce5022	-0.10073878
167	0x3e001f39	0.1251191
168	0xbdce77fe	-0.100814804
169	0x3ded3e42	0.1158414
170	0x3c86a538	0.016436204
171	0x3d3c6600	0.045995712
172	0xbded8db2	-0.11599292
173	0xbe009de3	-0.12560229
174	0xbdaddbdd	-0.08489201
175	0x3cd5e110	0.026108295
176	0x3da0cb21	0.07851244
177	0xbd344741	-0.044013266
178	0xbcf03032	-0.029319856
179	0xbcd90c73	-0.026495194
180	0xbc8b94b0	-0.017038673
181	0xbdac4ae1	-0.084127195
182	0x3dbf1554	0.0933024
183	0xbdebd916	-0.11516015
184	0xbde486a3	-0.111584924
185	0xbcc82510	-0.024431735
186	0xbd924eca	-0.07143934
187	0xbc93d61e	-0.018046435
188	0xbce33eea	-0.02773996
189	0xbd79bc29	-0.06097046
190	0x3d91bc88	0.071160376
191	0xbd7e9bc5	-0.062160272
192	0xbd92553c	-0.071451634
193	0x3d40cc9b	0.047070127
194	0xbd7992ef	-0.060931142
195	0xbbe2ae04	-0.006917717
196	0xbd86b8eb	-0.06578239
197	0xbcf85ed1	-0.03031865
198	0xbc2f0ba7	-0.0106839305
199	0x3d0cd1ce	0.034379773
200	0xbdf8e224	-0.12152508
201	0x3d685260	0.056719184
202	0x3d408fa9	0.047012005
203	0x3d43b1b1	0.04777688
204	0xbcc754de	-0.02433246
205	0x3e0307f0	0.12795997
206	0x3aa75c84	0.0012768661
207	0x3ce0bb95	0.027433196
208	0xbaa2fff4	-0.0012435899
209	0x3d3e7b48	0.04650429
210	0xbdcc6463	-0.09980085
211	0xbac06022	-0.0014677087
212	0x3db8385f	0.08995127
213	0x3cdd7140	0.02703154
214	0x3db1528a	0.08658321
215	0xbdd9d4e7	-0.10636311
216	0x3dff892f	0.124773376
217	0x3dfc43c9	0.123176165
218	0x3de9b5fb	0.11411663
219	0xbe0f58ed	-0.13998766
220	0x3cb49fe9	0.022048907
221	0x3dba0dc9	0.090846606
222	0x3d787bc7	0.06066492
223	0xbd6cf9fa	-0.057855584
224	0x3d9e7356	0.07736842
225	0x3c69c587	0.014268286
226	0xbdcc3148	-0.09970337
227	0xbd69f818	-0.057121366
228	0xbd79f62f	-0.061025795
229	0x3c8910d5	0.016731659
230	0x3e0310d1	0.12799384
231	0xbd27662d	-0.040868927
232	0x3d8350cd	0.06411896
233	0xbd390fb8	-0.045181006
234	0x3dd5db51	0.10442222
235	0x3c8138e7	0.015774203
236	0xbd1ef69f	-0.038809415
237	0x3d3de208	0.04635814
238	0xbdb2e0d6	-0.0873429
239	0x3b8871a5	0.004163938
240	0xbdf5c985	-0.120013274
241	0xbcd78c04	-0.026311882
242	0xbd13e59f	-0.036107656
243	0x3d9945f7	0.07484048
244	0x3d30c3b9	0.043155406
245	0x3cb1e1f8	0.021714196
246	0x3d00afc9	0.03141764
247	0xbe0099a2	-0.12558606
248	0xbddaa70a	-0.106763914
249	0x3d87d497	0.06632345
250	0x3d876b8b	0.06612309
251	0xbdadcad6	-0.084859535
252	0xbe049ea3	-0.1295114
253	0xbdb3aa1e	-0.08772682
254	0xbdd922b5	-0.10602323
255	0x3dbe383f	0.09288072
